…
--- PAGE 21 ---
For the predictor input, we concatenate the state st ∈R 18×26×26 with the expanded action
Expander2D(at)∈R 2×26×26 along the channel dimension. The predictor output has the same
dimension as the representation: ˆz∈R18×26×26. Both the encodings and predictions are flattened
for computing the VicReg and IDM objectives.
We set the planning-frequency (Section 3.3) in MPPI tok= 4for this environment.
The full model architecture is summarized using PyTorch-like notations.
total params: 53666
encoder params: 33296
predictor params: 20370
PLDM(
(backbone): MeNet6(
(layers): Sequential(
(0): Conv2d(3, 16, kernel_size=(5, 5), stride=(1, 1))
(1): GroupNorm(4, 16, eps=1e-05, affine=True)
(2): ReLU()
(3): Conv2d(16, 32, kernel_size=(5, 5), stride=(2, 2))
(4): GroupNorm(8, 32, eps=1e-05, affine=True)
(5): ReLU()
(6): Conv2d(32, 32, kernel_size=(3, 3), stride=(1, 1))
(7): GroupNorm(8, 32, eps=1e-05, affine=True)
(8): ReLU()
(9): Conv2d(32, 32, kernel_size=(3, 3), stride=(1, 1), padding=(1, 1))
(10): GroupNorm(8, 32, eps=1e-05, affine=True)
(11): ReLU()
(12): Conv2d(32, 16, kernel_size=(1, 1), stride=(1, 1))
)
(propio_encoder): Expander2D()
)
(predictor): ConvPredictor(
(layers): Sequential(
(0): Conv2d(20, 32, kernel_size=(3, 3), stride=(1, 1), padding=(1, 1))
(1): GroupNorm(4, 32, eps=1e-05, affine=True)
(2): ReLU()
(3): Conv2d(32, 32, kernel_size=(3, 3), stride=(1, 1), padding=(1, 1))
(4): GroupNorm(4, 32, eps=1e-05, affine=True)
(5): ReLU()
(6): Conv2d(32, 18, kernel_size=(3, 3), stride=(1, 1), padding=(1, 1))
)
(action_encoder): Expander2D()
)
)
D.1.5 Model Details for Ant-U-Maze
We encode the global (x, y) position using a 2-layer MLP into a 256 dimensional embedding, and
concatenate it with the rest of the raw proprioceptive state to make our overall state representation.
Our predictor is a 3-layer MLP with ensemble size of 5. During training, variance and covariance
regularization is only applied on the part of the representation for (x, y) (first 256 dimensions), since
the rest of the proprioceptive state are not encoded and therefore do not collapse.
total params: 1080615
encoder params: 9120
predictor params: 1072007
PLDM(
(backbone): MLPEncoder(
(globa_xy_encoder): Sequential(
(0): Linear(in_features=2, out_features=32, bias=True)
(1): LayerNorm((32,), eps=1e-05, elementwise_affine=True)
(2): Mish(inplace=True)
(3): Linear(in_features=32, out_features=256, bias=True)
21

--- PAGE 22 ---
(4): LayerNorm((256,), eps=1e-05, elementwise_affine=True)
)
(proprio_encoder): Identity()
)
(predictor): MLPPredictor(
(layers): Sequential(
(0): Linear(in_features=291, out_features=256, bias=True)
(1): LayerNorm((256,), eps=1e-05, elementwise_affine=True)
(2): Mish(inplace=True)
(3): Linear(in_features=256, out_features=256, bias=True)
(4): LayerNorm((256,), eps=1e-05, elementwise_affine=True)
(5): Mish(inplace=True)
(6): Linear(in_features=256, out_features=283, bias=True)
(7): LayerNorm((283,), eps=1e-05, elementwise_affine=True)
)
)
)
E Effects of Uncertainty Regularization via Ensembles
0.00 0.05 0.10 0.15
Fraction of non-random data
0
20
40
60
80
100Success rate (%)
20 40 60 80
Sequence length
0
20
40
60
80
100
103 104 105 106
Dataset size
0
20
40
60
80
100
50 250 500
Sequence length
0
20
40
60
80
100
PLDM w/ Cunc PLDM w/o Cunc
Figure 9:Top Row: Two-Rooms environment.Bottom Row: AntMaze environment.
…
